etc/nnet/ALERT/model_AHDC/model_AHDC.pt (torch, 33500 bytes, 9 tensors)

weight f4 [20, 10]
0.016321618 -0.18221462 -0.40844038 -0.32408324 0.50347316 0.009590065 0.10946304 0.36659476
-0.31424487 -0.099795125 -0.0012470722 -0.3247242 -0.23566034 0.44524437 0.041954983 0.3692119
-0.018974582 -0.16912371 0.24096783 -0.2428884 -0.161883 0.4065246 -0.05847117 -0.28985956
-0.018956421 -0.42505586 0.24794433 0.08815982 -0.29994842 0.30205843 0.293886 -0.30663213
0.38623935 0.04958869 -0.28594324 -0.15487753 -0.1923288 0.29219818 -0.17083967 -0.0048247785
0.05559953 0.037627347 -0.08829897 -0.05933164 0.3468139 -0.5279342 0.07993692 0.14981216
-0.2869036 -0.0013848839 -0.09652864 0.12877122 -0.23699889 -0.28825825 0.38214496 -0.13770118
0.21508373 0.24494596 -0.087669104 0.12530011 0.56839573 0.06774847 -0.17476548 0.27105445
-0.4751996 0.2958145 -0.26915407 -0.2882774 0.25310844 -0.20867713 0.11620797 -0.042541623
0.31961253 0.27871028 -0.5444678 0.06584475 -0.14864366 -0.27537507 0.34276456 0.13245814
-0.02370233 -0.5929594 0.42825258 0.26851615 -0.52943933 0.23311517 -0.027394582 0.07118662
0.11648545 0.055131245 0.25792688 -0.56653637 0.32222682 0.0056605055 -0.4494979 0.4700616
-0.16269454 0.010894453 0.12764831 -0.13775335 -0.42348588 0.6050624 -0.2536025 -0.26548347
0.42992857 -0.19429712 0.16337894 0.25987002 -0.16571273 -0.19919777 -0.47031274 0.13978702
-0.17915335 0.06255503 0.3999235 0.22244278 0.33019057 0.026906481 -0.26610985 -0.14717993
-0.42091134 -0.012714971 0.409706 0.48823875 0.251226 -0.3354064 -0.2157432 -0.32782826
-0.036017217 0.26215294 0.06163416 -0.29040468 -0.15962276 0.35947222 -0.36627325 -0.39850748
0.29520622 0.33536538 -0.08076539 -0.0018588166 0.32295743 -0.20161112 0.17631383 -0.29188937
0.2220384 0.045866046 -0.30914742 -0.20509765 -0.2777392 0.4131011 -0.42908424 0.061966106
0.22765201 -0.4488984 0.26534978 0.30565464 -0.16146326 0.27451032 0.017087908 -0.22780602
0.13303861 0.5298115 -0.21771263 -0.011988829 0.48194587 -0.22953746 -0.19563076 0.1678373
-0.08141996 -0.0403734 -0.14247045 -0.4944076 -0.2708179 -0.036553953 -0.18908063 0.6138737
0.06242775 -0.022163564 0.31057453 -0.02924637 -0.17291884 0.792544 0.13455926 0.0022158085
0.26155525 -0.129208 0.20755878 0.008948403 -0.26850083 -0.35777235 0.46306533 0.29447815
-0.4563583 0.0914456 -0.15355027 -0.3687466 0.34130004 -0.030209651 -0.12946866 0.10722609
00000000: eab4 853c 7896 3abe 191f d1be 3dee a5be
00000010: 9ee3 003f a61f 1d3c 292e e03d 4fb2 bb3e
00000020: b4e4 a0be 6361 ccbd cd74 a3ba 4042 a6be
00000030: f250 71be 12f7 e33e fdd8 2b3d 5809 bd3e
00000040: 9570 9bbc c42e 2dbe 45c0 763e bdb7 78be
00000050: a8c4 25be fe23 d03e 777f 6fbd 7968 94be
00000060: 7f4a 9bbc eca0 d9be 1ee5 7d3e 238d b43d
00000070: d792 99be 67a7 9a3e 3a78 963e e3fe 9cbe
00000080: 2ac1 c53e 831d 4b3d 2767 92be 3798 1ebe
00000090: d7f1 44be 009b 953e 98f0 2ebe 2d19 9ebb
000000a0: 55bc 633d 221f 1a3d 17d6 b4bd bc05 73bd
000000b0: 9791 b13e b226 07bf f8b5 a33d 5c68 193e
000000c0: 07e5 92be fe84 b5ba cfb0 c5bd 9adc 033e
000000d0: d6af 72be 9696 93be 81a8 c33e 8a01 0dbe
000000e0: e93e 5c3e 1dd3 7a3e dc8b b3bd ac4e 003e
000000f0: 6282 113f b6bf 8a3d b9f5 32be a6c7 8a3e
00000100: 5d4d f3be 0075 973e 90ce 89be 1899 93be
00000110: 6e97 813e 75af 55be 72fe ed3d 2040 2ebd
00000120: 41a4 a33e 1db3 8e3e 3e62 0bbf 9dd9 863d
00000130: 0b36 18be f6fd 8cbe d67e af3e 1ba3 073e
00000140: 642b c2bc 30cc 17bf ec43 db3e f37a 893e
00000150: 5689 07bf beb5 6e3e 9a6a e0bc 4aca 913d
00000160: ec8f ee3d 4dd1 613d fe0e 843e 8708 11bf
00000170: eafa a43e c37b b93b 9724 e6be eaab f03e
00000180: 6699 26be a67e 323c 3db6 023e 370f 0dbe
00000190: 24d3 d8be 5fe5 1a3f 30d8 81be 73ed 87be
000001a0: 991f dc3e d3f5 46be cf4c 273e af0d 853e
000001b0: 99b0 29be 80fa 4bbe d5cc f0be 5424 0f3e
000001c0: fa73 37be da1c 803d c6c2 cc3e 0ac8 633e
000001d0: bd0e a93e fb6a dc3c 8d3f 88be 56b6 16be
000001e0: b181 d7be 7452 50bc fcc4 d13e 6efa f93e
000001f0: b2a0 803e 63ba abbe c9eb 5cbe 1bd9 a7be
00000200: ca86 13bd e938 863e 1a74 7c3d ecaf 94be
00000210: 2674 23be be0c b83e 2b88 bbbe 2c09 ccbe
00000220: 4525 973e 03b5 ab3e 5368 a5bd 89a3 f3ba
00000230: ad5a a53e 2573 4ebe 9d8b 343e 8672 95be
00000240: 095e 633e 09de 3b3d 9248 9ebe 1e05 52be
00000250: d533 8ebe fd81 d33e eeb0 dbbe 2cd0 7d3d
00000260: 9c1d 693e 03d6 e5be eddb 873e c47e 9c3e
00000270: a056 25be 9e8c 8c3e f1fb 8b3c fb45 69be
00000280: 463b 083e baa1 073f 0ff0 5ebe cb6c 44bc
00000290: 9cc1 f63e de0b 6bbe 6e53 48be 8bdd 2b3e
000002a0: 82bf a6bd 945e 25bd c6e3 11be fe22 fdbe
000002b0: a5a8 8abe 99b9 15bd 5a9e 41be d426 1d3f
000002c0: 3eb4 7f3d 5d90 b5bc a003 9f3e 1596 efbc
000002d0: a311 31be 2ae4 4a3f e7c9 093e 1937 113b
000002e0: 92ea 853e 1a4f 04be 4a8a 543e 539c 123c
000002f0: f178 89be f02d b7be e616 ed3e d7c5 963e
00000300: cca7 e9be d547 bb3d 483c 1dbe 5bcc bcbe
00000310: e1be ae3e 3b7a f7bc 6f93 04be 5a99 db3d

bias f4 [20]
1.0969068 -0.2031026 0.052967437 -0.74349666 0.3127771 -0.09169638 0.73425555 0.029688409
-0.07124524 1.2916753 1.2768592 -0.22081089 -0.39258507 -0.50126 -0.5399077 -0.2766454
0.08658167 -0.22050859 0.3579485 -0.22089662
00000000: 7167 8c3f 21fa 4fbe 62f4 583d cc55 3ebf
00000010: 5224 a03e 50cb bbbd 2cf8 3b3f 1b35 f33c
00000020: 06e9 91bd 9e55 a53f 1f70 a33f 401c 62be
00000030: e900 c9be 9352 00bf 6437 0abf 77a4 8dbe
00000040: bb51 b13d 01cd 61be 0745 b73e b932 62be

weight f4 [20, 20]
0.32902873 0.1278434 -0.04264392 -0.019019512 0.14817901 -0.030790552 0.08520923 0.053927384
-0.21708329 0.5319348 -0.050320573 0.54287916 0.013145355 -0.14384769 0.13094366 -0.88230914
0.025741955 0.13488145 0.4341096 0.35910156 0.27354765 -0.27309808 -0.0016699685 0.0002766585
0.124026865 -0.3058536 -0.23363884 -0.9865459 -0.1131045 0.12619182 0.374804 -0.17874509
-0.89116883 -0.017499935 0.30322012 -0.7338593 -2.0444877 -0.9470734 0.0076878667 -0.086564206
0.19784622 -0.004131432 0.22217639 -0.10208047 0.19444132 -0.26290452 -0.39866218 -0.23990606
-1.3465911 0.29129025 -0.09687513 -0.6679915 -0.037301242 0.10695987 -0.78876317 -0.09584918
-2.5269392 0.38297957 -0.6433953 -0.14371294 -0.54847485 0.014937363 0.045305096 -0.034183312
0.14849731 -0.22714156 0.29542392 0.12961818 0.15028867 0.34756607 0.23040478 -0.0008443366
-0.29441047 -0.05846705 -0.41437185 -0.21255735 0.21509303 -0.012150661 -0.11692286 -0.12021455
-0.60632366 -0.05330366 0.037936587 0.35956103 0.43664524 0.1500837 -0.017661013 0.03615871
0.3157312 -0.7375617 -0.6985986 -0.18226694 0.2664071 -0.21513656 0.12007103 -0.08705755
0.041915897 -0.10208598 -0.13814065 0.037485246 -0.68731135 0.15725571 -0.36312985 0.06659888
-0.072952434 0.17109163 0.29359946 0.16840135 0.12173727 -0.64535135 0.48013002 -0.08399704
0.18742992 -0.084542066 -0.05523204 -1.0163752 -0.0073295506 -0.29923218 0.2197818 0.10640131
-0.52763516 -0.09951884 0.13189699 -0.13787918 0.10077029 0.06517475 0.2099582 -0.08211305
-0.1669187 -0.106703445 -0.023163348 0.0015277022 0.7596794 0.07526618 -0.16661845 0.8616157
0.20679986 -0.24638177 -0.009711781 1.1000943 -0.106295966 -0.15251192 0.2359342 -0.08866607
0.2484545 -0.17557795 0.197415 0.045819536 0.1662985 -0.44981474 0.33305082 0.19430897
-0.6667576 0.16329394 -0.17090625 -0.3613051 0.018880846 0.13463506 0.11125739 -0.9570467
0.20868972 0.17645957 -0.007423991 -0.49726924 -0.093277656 -0.06541151 0.16386114 -0.30430767
0.008189843 -0.5097474 0.13457467 0.31914023 0.2905478 0.25089288 -0.055727094 -0.010909856
0.11364731 0.25756586 0.2450574 0.436969 0.4701182 0.030894732 -0.091331795 0.06035433
0.05977463 0.038569756 -0.23683098 -0.04550773 0.053175405 -0.59141195 0.39153945 0.1154708
0.49091145 0.07664654 0.21227205 0.5347048 0.06898943 -0.24698806 -0.07463451 0.91396797
-0.1240662 -0.21257898 -0.24103366 -0.12397161 0.080515355 0.22153142 0.041319214 -0.18626371
0.13850385 0.032019652 0.20118994 0.1130519 -0.4823164 0.060972724 0.3187354 0.00019986785
0.29246426 -0.34952116 -0.12530018 -1.0950197 0.25820047 0.3581477 0.059259217 0.21143076
-0.021191446 -0.0687121 -0.18752164 -0.42964098 -0.089393355 -0.23054363 0.30918908 0.06645222
0.6153057 -0.20578839 -0.04151778 0.9809854 -0.13890132 0.16493492 0.004593453 -0.66305256
-0.3602279 0.20810331 -0.27381235 -0.040155333 -0.015356999 -0.12066751 0.2404711 0.32222518
0.27907324 0.60976934 -0.32720816 -0.24688718 0.2703454 0.18172838 0.11637034 0.6884549
00000000: 7476 a83e 61e9 023e 64ab 2ebd cfce 9bbc
00000010: 3dbc 173e 783c fcbc 2d82 ae3d f6e2 5c3d
00000020: 154b 5ebe e12c 083f f21c 4ebd 21fa 0a3f
00000030: 9d5f 573c cf4c 13be 1816 063e 03df 61bf
00000040: cbe0 d23c 5d1e 0a3e 9d43 de3e 29dc b73e
00000050: 700e 8c3e 83d3 8bbe d8e2 daba 7a0c 9139
00000060: cc01 fe3d d898 9cbe 053f 6fbe 468e 7cbf
00000070: 55a3 e7bd 6e38 013e 4fe6 bf3e f408 37be
00000080: a423 64bf 065c 8fbc ab3f 9b3e 34de 3bbf
00000090: e3d8 02c0 6773 72bf 80ea fb3b 9348 b1bd
000000a0: 3398 4a3e f760 87bb 3582 633e 910f d1bd
000000b0: a01b 473e 6c9b 86be 731d ccbe efa9 75be
000000c0: 195d acbf ff23 953e 7866 c6bd 7e01 2bbf
000000d0: 30c9 18bd c70d db3d 62ec 49bf 934c c4bd
000000e0: 5fb9 21c0 e615 c43e 8eb5 24bf 7c29 13be
000000f0: d968 0cbf d7bb 743c d691 393d cd03 0cbd
00000100: ae0f 183e cc97 68be ce41 973e a1ba 043e
00000110: 46e5 193e 2ef4 b13e 3bef 6b3e 7856 5dba
00000120: f8bc 96be 257b 6fbd 8c28 d4be a2a8 59be
00000130: 5941 5c3e 9113 47bc 4175 efbd 0c33 f6bd
00000140: 0738 1bbf f054 5abd 6563 1b3d 6218 b83e
00000150: f78f df3e 8baf 193e d4ad 90bc 281b 143d
00000160: 85a7 a13e d8d0 3cbf 5cd7 32bf 2fa4 3abe
00000170: 8366 883e c24c 5cbe cde7 f53d 3b4b b2bd
00000180: 01b0 2b3d 7412 d1bd be74 0dbe 218a 193d
00000190: a3f3 2fbf a407 213e 28ec b9be fe64 883d
000001a0: 1668 95bd a532 2f3e ab52 963e 6771 2c3e
000001b0: 6451 f93d bf35 25bf 9ad3 f53e a406 acbd
000001c0: a1ed 3f3e 6424 adbd fe3a 62bd 9518 82bf
000001d0: ba2c f0bb f634 99be 7b0e 613e eee8 d93d
000001e0: 1913 07bf 89d0 cbbd 0110 073e 3330 0dbe
000001f0: a760 ce3d 577a 853d 48ff 563e e32a a8bd
00000200: bcec 2abe 5687 dabd 10c1 bdbc 2e3d c83a
00000210: 597a 423f 2825 9a3d 079e 2abe d992 5c3f
00000220: 58c3 533e 814b 7cbe 291e 1fbc e4cf 8c3f
00000230: b3b1 d9bd 162c 1cbe bc98 713e 8e96 b5bd
00000240: db6a 7e3e b5ca 33be 2827 4a3e 44ad 3b3d
00000250: 274a 2a3e 1e4e e6be a385 aa3e eef8 463e
00000260: a0b0 2abf 8736 273e 0c02 2fbe fbfc b8be
00000270: 01ac 9a3c c6dd 093e eada e33d 0301 75bf
00000280: c2b2 553e d1b1 343e f344 f3bb 139a febe
00000290: 5b08 bfbd 78f6 85bd 37cb 273e 37ce 9bbe
000002a0: b12e 063c ce7e 02bf f1cd 093e 5966 a33e
000002b0: aec2 943e 0875 803e 1842 64bd 41bf 32bc
000002c0: ecbf e83d acdf 833e 54f0 7a3e 67ba df3e
000002d0: 55b3 f03e f316 fd3c 2a0c bbbd 1a36 773d
000002e0: 3ed6 743d 52fb 1d3d d283 72be 5066 3abd
000002f0: 74ce 593d c666 17bf dc77 c83e f47b ec3d
00000300: bf58 fb3e dcf8 9c3d d85d 593e 6ae2 083f
00000310: 554a 8d3d 70ea 7cbe fad9 98bd cef9 693f
00000320: 6b16 febd 4eae 59be 87d1 76be d4e4 fdbd
00000330: 3ce5 a43d 22d9 623e 563e 293d eabb 3ebe
00000340: f4d3 0d3e 0a27 033d bc04 4e3e c187 e73d
00000350: 2df2 f6be 89be 793d 4931 a33e 9e93 5139
00000360: e0bd 953e 70f4 b2be b14e 00be 9b29 8cbf
00000370: da32 843e 235f b73e cbb9 723d 4e81 583e
00000380: af99 adbc eeb8 8cbd ac05 40be e7f9 dbbe
00000390: dd13 b7bd a113 6cbe 084e 9e3e 1a18 883d
000003a0: ad84 1d3f 31ba 52be 8c0e 2abd dc21 7b3f
000003b0: 263c 0ebe b3e4 283e ad84 963b d0bd 29bf
000003c0: cb6f b8be 0919 553e 2231 8cbe eb79 24bd
000003d0: ec9b 7bbc 8720 f7bd 0e3e 763e b3fa a43e
000003e0: b0e2 8e3e d819 1c3f d487 a7be fecf 7cbe
000003f0: b66a 8a3e 0117 3a3e 9353 ee3d 953e 303f

bias f4 [20]
-0.4512484 0.082614705 0.7798494 0.95477027 0.3698186 0.21043232 -0.044017635 0.4912012
-0.54119027 -0.57486904 0.5014144 -0.5086769 -0.090434454 -0.38305914 -0.4648263 0.1593441
-0.40856445 0.12046806 -0.42734438 0.22950877
00000000: 080a e7be e631 a93d 36a4 473f d36b 743f
00000010: dd58 bd3e 927b 573e d64b 34bd b97e fb3e
00000020: 728b 0abf 9e2a 13bf b25c 003f a638 02bf
00000030: b335 b9bd 5420 c4be b6fd edbe 1a2b 233e
00000040: 5c2f d1be f5b7 f63d e2cc dabe 5904 6b3e

weight f4 [20, 20]
-0.16473801 -0.11217158 -0.6172924 -0.1707829 0.15992025 -0.12830107 0.34014353 0.06658348
0.14232332 0.05954539 -0.03502804 0.36400595 -0.004881367 0.18720812 0.3845088 -0.5145973
0.3344744 1.1024963 0.15000531 0.084348805 0.16668634 0.09313852 0.15624572 -0.16453843
0.06088652 -0.12604593 0.34004486 -0.10650055 0.1754497 0.6037971 0.21987966 0.44733357
0.3511619 -0.2552481 -0.21290368 0.26833123 0.18783939 0.8364786 -0.6405075 -0.31916118
0.0968901 -0.523724 -0.9000306 0.25404096 -0.70391494 -0.19013205 0.13151318 -0.22732157
0.058405627 -0.07292793 -0.3225953 0.19834816 0.2103854 0.22820164 -0.19398871 0.4960658
-0.2656895 -0.19854236 -0.35346898 -0.07468898 -0.12767892 0.12411568 0.21838488 0.2854045
0.05388493 0.017344985 -0.31740677 0.23562327 -0.20361769 -0.337751 -0.012362205 -0.25350106
-0.30591327 0.3568693 0.15375267 -0.08513458 -0.042530857 -0.6653753 -0.46178788 0.12502079
0.2106998 -0.24666491 -0.33597687 -0.0456108 -0.13268055 0.15350875 0.19612472 0.21176653
-0.10481864 -0.16056898 -0.23960425 -0.03349096 -0.15905893 0.16437149 0.30950722 0.24432439
0.12334942 -0.005266598 0.16382197 0.36730027 0.05325882 -0.14058729 0.42517972 -0.091416106
0.05425723 0.039254084 0.24512206 -0.043008488 -0.11233209 0.4037967 0.2755119 0.3795325
0.507489 -0.31983337 -0.6576772 -0.09617385 0.10770391 0.8757354 0.59789556 -0.11707659
-0.008723121 0.37544122 -0.109283954 -0.40224147 -0.40590066 -0.09268964 -0.093268335 -0.031206086
0.30405688 0.06848403 -0.5062863 0.21292551 0.228058 0.16992734 0.33952326 -0.32415807
-0.3447037 0.11268211 0.7774884 -0.123199366 -0.09274631 -0.025946075 0.1739909 -0.18479457
-0.038343903 -0.046549004 0.43073925 -0.5898652 0.26388344 0.107817166 0.15250222 0.12621836
-0.06941891 -0.16551343 0.51409876 -0.62600195 0.2642237 0.76280206 0.6131289 -0.25209272
-0.35819137 -0.046594836 0.4123046 0.34445208 0.2428313 -0.26319 0.7201978 -0.266304
-0.49053493 0.14025842 -0.08116061 -1.101098 0.58836335 0.012748865 -0.1401602 -0.26056856
0.004853875 0.0083019165 -0.19681056 0.026679894 -0.058192205 0.4271516 -0.18326901 0.10112962
-0.1124581 0.32278576 0.011742693 0.16773514 -0.21719323 -0.07746383 0.2547127 -0.09208888
-0.13555732 -0.023027476 -0.08081471 0.15682308 0.19816832 -0.80381733 -0.73412764 0.09808308
0.084063046 -0.061646312 -0.9082386 0.31254283 0.10235047 -0.73777395 0.12348255 -0.14030214
0.08467101 0.011463096 -0.0991774 0.09042968 0.18406825 -0.02033296 0.23281953 -0.26370728
0.27287462 0.5657889 0.03398474 0.011330798 -0.26276964 0.2598855 0.22907704 0.1514147
0.044572793 0.05065833 -0.81818503 0.050665315 -0.12474813 0.064800784 0.27453926 -0.4047244
0.035759278 0.18712474 0.21377099 0.3256496 0.20061845 0.15244874 -0.14282845 0.06201429
0.4490569 -0.25106183 -0.008348273 -0.058717992 0.3611315 0.10297083 -0.34960124 0.0034258435
-0.33790767 -0.206184 -0.014362399 -0.021345437 -0.8450604 0.12972254 -0.029310176 0.045674488
00000000: 15b1 28be 37ba e5bd e006 1ebf b6e1 2ebe
00000010: 22c2 233e 5b61 03be 4b27 ae3e eb5c 883d
00000020: 34bd 113e dee5 733d 9079 0fbd fd5e ba3e
00000030: e0f3 9fbb 7cb3 3f3e 56de c43e a6bc 03bf
00000040: 3b40 ab3e 991e 8d3f fe9a 193e 11bf ac3d
00000050: d3af 2a3e 69bf be3d e1fe 1f3e c37c 28be
00000060: 2564 793d 2f12 01be 5c1a ae3e f61c dabd
00000070: 16a9 333e 7292 1a3f 2228 613e e808 e53e
00000080: 7ecb b33e e1af 82be 6c03 5abe b662 893e
00000090: f858 403e 7623 563f 4df8 23bf 1869 a3be
000000a0: 516e c63d c712 06bf 6868 66bf a811 823e
000000b0: c533 34bf fab1 42be 64ab 063e fcc6 68be
000000c0: bd3a 6f3d 3d5b 95bd 362b a5be c81b 4b3e
000000d0: 456f 573e b1ad 693e faa4 46be 56fc fd3e
000000e0: 7408 88be b04e 4bbe e3f9 b4be 89f6 98bd
000000f0: 43be 02be 5d30 fe3d 49a0 5f3e 8a20 923e
00000100: 72b6 5c3d 1217 8e3c 2483 a2be 3a47 713e
00000110: 2881 50be b3ed acbe d98a 4abc e4ca 81be
00000120: aaa0 9cbe 93b7 b63e 5771 1d3e 0a5b aebd
00000130: d634 2ebd 0956 2abf 766f ecbe 7305 003e
00000140: b0c1 573e ba95 7cbe 2905 acbe 64d2 3abd
00000150: 69dd 07be 6631 1d3e ebd4 483e 53d9 583e
00000160: 28ab d6bd 326c 24be d15a 75be d12d 09bd
00000170: 58e0 22be 0051 283e bb77 9e3e 2c30 7a3e
00000180: 9f9e fc3d 6d93 acbb f2c0 273e c80e bc3e
00000190: ec25 5a3d 1df6 0fbe 28b1 d93e 5e38 bbbd
000001a0: d43c 5e3d e4c8 203d 4701 7b3e ab29 30bd
000001b0: 5e0e e6bd 71be ce3e e50f 8d3e 1552 c23e
000001c0: cdea 013f 33c1 a3be 885d 28bf ccf6 c4bd
000001d0: de93 dc3d 3230 603f af0f 193f dac5 efbd
000001e0: 6ceb 0ebc d539 c03e 44d0 dfbd 98f2 cdbe
000001f0: 36d2 cfbe 11d4 bdbd 7803 bfbd e8a3 ffbc
00000200: 58ad 9b3e 5b41 8c3d fb9b 01bf 2509 5a3e
00000210: 0988 693e 6f01 2e3e fed5 ad3e 0cf8 a5be
00000220: 017d b0be e1c5 e63d 7b09 473f f34f fcbd
00000230: c7f1 bdbd dd8c d4bc ac2a 323e ca3a 3dbe
00000240: 7f0e 1dbd 2baa 3ebd db89 dc3e 6801 17bf
00000250: bb1b 873e 3fcf dc3d 8b29 1c3e 633f 013e
00000260: 802b 8ebd 5a7c 29be fa9b 033f aa41 20bf
00000270: 5448 873e ff46 433f 04f6 1c3f 4c12 81be
00000280: dc64 b7be 3ada 3ebd 9719 d33e 065c b03e
00000290: c5a8 783e d7c0 86be e25e 383f ff58 88be
000002a0: 6527 fbbe e79f 0f3e 8937 a6bd c7f0 8cbf
000002b0: fb9e 163f 9ee0 503c 2886 0fbe 3e69 85be
000002c0: 410d 9f3b c304 083c b588 49be cb8f da3c
000002d0: f35a 6ebd 9db3 da3e dfaa 3bbe 0c1d cf3d
000002e0: 6f50 e6bd 2d44 a53e 6d64 403c c3c2 2b3e
000002f0: e767 5ebe 5ba5 9ebd b469 823e 1899 bcbd
00000300: 8acf 0abe 1ea4 bcbc 2f82 a5bd 3b96 203e
00000310: a3ec 4a3e f9c6 4dbf caef 3bbf c8df c83d
00000320: 3f29 ac3d d880 7cbd 5382 68bf 9d05 a03e
00000330: 209d d13d c1de 3cbf 6be4 fc3d 5dab 0fbe
00000340: ff67 ad3d b6cf 3b3c 851d cbbd 3233 b93d
00000350: 637c 3c3e 4f91 a6bc 3e68 6e3e a404 87be
00000360: 39b6 8b3e 8bd7 103f 9533 0b3d d0a4 393c
00000370: be89 86be b60f 853e 2c93 6a3e 750c 1b3e
00000380: f691 363d 1c7f 4f3d 9374 51bf 6f86 4f3d
00000390: f37b ffbd 46b6 843d 6990 8c3e 0938 cfbe
000003a0: 5278 123d a19d 3f3e c8e6 5a3e 8bbb a63e
000003b0: ec6e 4d3e 861b 1c3e 9f41 12be b202 7e3d
000003c0: c9ea e53e 2d8b 80be 32c7 08bc 4782 70bd
000003d0: 3ae6 b83e 5fe2 d23d effe b2be 1e84 603b
000003e0: 3c02 adbe e621 53be 4450 6bbc a0dc aebc
000003f0: e155 58bf fcd5 043e e51b f0bc 2c15 3b3d

bias f4 [20]
-0.83295274 -0.36603838 -0.17700262 0.51154566 0.16811182 0.11036243 -0.38806704 -0.038922828
0.08629284 0.38168797 -0.6246263 0.43080282 0.7017011 0.47425675 -0.51654935 -0.34118465
0.31950197 -0.14484781 0.21889564 -0.23728187
00000000: 643c 55bf 6269 bbbe 2d40 35be a8f4 023f
00000010: 8125 2c3e b305 e23d b9b0 c6be 8b6d 1fbd
00000020: 4dba b03d 9b6c c33e 82e7 1fbf 3092 dc3e
00000030: afa2 333f c8d1 f23e 943c 04bf c1af aebe
00000040: c395 a33e fc52 14be 2e26 603e 05fa 72be

weight f4 [20, 20]
0.31679788 0.23563741 0.4675303 -0.5861258 -0.15862888 -0.2245671 0.022727862 0.15945616
-0.36910957 0.15816502 0.13277775 0.01578884 0.0761875 -0.14138451 0.43241698 -0.08495878
-0.19044437 0.385442 0.33141512 0.061861932 0.2600812 0.4912349 0.607869 -0.45778748
-0.2478035 -0.21835297 0.16740541 -0.23170592 -0.92372257 0.3219945 -0.24783418 -0.029518127
-0.07732993 0.5110163 -0.35151565 -0.066508554 0.34126854 0.0056268633 -0.5249262 0.25396487
-0.043796796 -0.3011671 -0.26873028 0.10020327 0.09099197 -0.26187578 -0.4848552 -0.47229847
-0.44080517 0.045686763 -0.1957233 -0.07766977 0.15625213 0.23388888 -0.14954194 0.057387155
0.14825368 -0.019704932 0.30089512 0.21459189 0.3205065 -0.031938855 -0.17770505 -0.6428688
0.0674803 0.2626317 0.1341965 -0.0008081818 0.12800877 0.17024978 0.26145127 -0.17834435
-0.5451225 0.08045389 0.35069573 0.23422907 -0.18879612 0.15957151 -0.058929756 -0.3110487
0.39249134 0.033976994 0.23880213 -0.05275898 0.09377359 0.09170949 0.20870902 0.16033494
0.48804665 -0.03420305 0.20857657 -0.252137 -0.40470442 -0.21291398 0.09155024 0.20802562
-0.4626775 0.18106422 0.14054811 -0.44492415 -0.20226863 -0.08671064 0.21368995 -0.18868315
0.26781484 -0.28062448 -0.75477135 -0.44839936 -0.22976595 0.18191072 -0.14431457 0.068954706
0.09600705 0.3059843 -0.019028643 0.106831744 0.05374731 -0.10061378 0.096776694 0.24986972
0.058500048 0.015154711 0.0052666822 -0.101069696 0.08943383 -0.005761635 0.22309408 0.42515922
0.6845323 -0.058664158 -0.2022512 0.21647486 -0.14223526 0.14855435 0.26267704 0.5438681
0.266721 -0.019165643 -0.2525982 -0.07640157 -0.16633585 -0.12808111 -0.24977383 -0.012319054
0.021486092 0.045654584 -0.4752712 -0.7813459 -0.5217979 0.17649388 0.030879257 0.19157286
0.09575954 0.33170053 -0.35581478 0.19218099 0.29980916 0.08810899 -0.13536543 -0.12681764
-0.117047876 -0.3393423 -0.10056091 0.06499844 0.102175705 -0.68373096 -0.2252089 -0.6085555
-0.32775423 0.16269003 0.11905267 -0.037239045 0.008582273 0.07105059 -0.34427622 0.20778888
0.15591261 0.20111932 -0.1169684 0.23934324 -0.11525659 -0.15515241 -0.4432961 -0.102010325
0.04151558 -0.009976724 -0.42118555 -0.5781006 -0.44626123 0.19959772 -0.21855235 0.26172101
0.18920083 0.24549069 -0.290118 0.11703017 0.15129451 0.12162267 0.21483447 0.08354365
0.52832925 -0.25933605 0.15019447 0.26264143 -0.0015812818 0.1430661 -0.28015423 0.12402911
0.042105697 0.076321416 0.12287659 -0.20978712 -0.70931816 -0.5476623 0.46461868 -0.023852237
-0.45123607 0.41552076 -0.071100846 -0.72350496 0.24007565 0.26730332 0.43301216 -0.26175132
0.2533461 0.0261235 -0.34455577 0.13666922 0.5001234 -0.12581335 0.052296955 -0.20868854
-0.44997808 -0.08655209 0.35556507 0.2765275 0.052578695 0.17649703 -0.05172427 -0.011033348
0.32149598 0.46938375 0.6631673 -0.50412846 -0.108040445 -0.057962235 -0.12091271 0.048187964
-0.3250831 0.29653606 0.18119916 -0.54135007 -0.43752295 0.00017581668 -0.16260812 0.007883945
00000000: 5533 a23e ef4a 713e 2260 ef3e 570c 16bf
00000010: 9c6f 22be ebf4 65be c82f ba3c 7a48 233e
00000020: eefb bcbe 03f6 213e e4f6 073e 9957 813c
00000030: 3108 9c3d 1ac7 10be c265 dd3e defe adbd
00000040: d903 43be a758 c53e 3eaf a93e f062 7d3d
00000050: 5d29 853e 2483 fb3e 4e9d 1b3f 1f63 eabe
00000060: 33c0 7dbe ec97 5fbe 536c 2b3e 5144 6dbe
00000070: 1579 6cbf 77dc a43e 3ec8 7dbe 00d0 f1bc
00000080: 285f 9ebd f7d1 023f dcf9 b3be a335 88bd
00000090: c0ba ae3e 8d61 b83b 9061 06bf af07 823e
000000a0: 4564 33bd 9332 9abe 0497 89be 5f37 cd3d
000000b0: ff59 ba3d 9514 86be f13e f8be 1bd1 f1be
000000c0: 37b1 e1be 0b22 3b3d b06b 48be 5411 9fbd
000000d0: 8f00 203e 9180 6f3e 8621 19be cb0e 6b3d
000000e0: d0cf 173e 3d6c a1bc ed0e 9a3e fabd 5b3e
000000f0: 6e19 a43e 51d2 02bd 50f8 35be 0d93 24bf
00000100: 1d33 8a3d aa77 863e cf6a 093e 2adc 53ba
00000110: bb14 033e f555 2e3e f1dc 853e e79f 36be
00000120: 268d 0bbf 02c5 a43d 648e b33e bfd9 6f3e
00000130: c553 41be b766 233e 5460 71bd c641 9fbe
00000140: a0f4 c83e 762b 0b3d 8c88 743e cd19 58bd
00000150: 5e0c c03d 2fd2 bb3d d1b7 553e d82e 243e
00000160: 40e1 f93e 7f18 0cbd 1995 553e 1a18 81be
00000170: 6b35 cfbe 1f06 5abe b17e bb3d ab04 553e
00000180: 11e4 ecbe e668 393e d8eb 0f3e 19cd e3be
00000190: 821f 4fbe 5995 b1bd 8ad1 5a3e 2836 41be
000001a0: 071f 893e 03ae 8fbe b238 41bf 9a94 e5be
000001b0: c447 6bbe ce46 3a3e 33c7 13be 2038 8d3d
000001c0: 589f c43d f9a9 9c3e f5e1 9bbc 9aca da3d
000001d0: 2426 5c3d 990e cebd dc32 c63d d9dd 7f3e
000001e0: bf9d 6f3d 774b 783c 2294 ac3b a1fd cebd
000001f0: 1529 b73d 19cc bcbb c672 643e 78ae d93e
00000200: 823d 2f3f d449 70bd f01a 4fbe 96ab 5d3e
00000210: 1fa6 11be a21e 183e 9b7d 863e f13a 0b3f
00000220: a88f 883e 4401 9dbc 8d54 81be 6d78 9cbd
00000230: f253 2abe b227 03be b6c4 7fbe dcd5 49bc
00000240: 9a03 b03c 4d00 3b3d bf56 f3be 4906 48bf
00000250: 8c94 05bf d0ba 343e 7ff6 fc3c ad2b 443e
00000260: 941d c43d a7d4 a93e 5b2d b6be 18cb 443e
00000270: 9680 993e 7c72 b43d 3c9d 0abe 7cdc 01be
00000280: ccb6 efbd 46be adbe e1f2 cdbd e71d 853d
00000290: 7f41 d13d fe08 2fbf 299d 66be 4bca 1bbf
000002a0: 67cf a7be 3798 263e e3d1 f33d f887 18bd
000002b0: a99c 0c3c f982 913d f944 b0be 9cc6 543e
000002c0: 8ea7 1f3e 39f2 4d3e 218d efbd 6516 753e
000002d0: a60b ecbd 46e0 1ebe b5f7 e2be caea d0bd
000002e0: 3e0c 2a3d 6a75 23bc a2a5 d7be 67fe 13bf
000002f0: 5a7c e4be 5863 4c3e 30cc 5fbe 4c00 863e
00000300: ddbd 413e e961 7b3e 598a 94be 84ad ef3d
00000310: f3ec 1a3e 4e15 f93d 91fd 5b3e ef18 ab3d
00000320: 9640 073f b2c7 84be 94cc 193e f078 863e
00000330: 0343 cfba eb7f 123e 6070 8fbe f902 fe3d
00000340: 0677 2c3d 674e 9c3d b9a6 fb3d 6fd2 56be
00000350: e095 35bf 9933 0cbf 80e2 ed3e c465 c3bc
00000360: 6a08 e7be 23bf d43e 529d 91bd 9f37 39bf
00000370: 64d6 753e fbdb 883e c5b3 dd3e 4504 86be
00000380: 94b6 813e f300 d63c 9d69 b0be 04f3 0b3e
00000390: 1608 003f 37d5 00be 5535 563d 73b2 55be
000003a0: 8763 e6be 3942 b1bd a00c b63e 0395 8d3e
000003b0: c25c 573d a3bb 343e d4dc 53bd 37c5 34bc
000003c0: 1f9b a43e 1153 f03e 55c5 293f 900e 01bf
000003d0: 4f44 ddbd cf69 6dbd 15a1 f7bd be60 453d
000003e0: 4b71 a6be 93d3 973e 468c 393e eb95 0abf
000003f0: 0203 e0be 6e5b 3839 be82 26be a92b 013c

bias f4 [20]
-0.36751974 -0.31529546 0.95879793 -0.45853716 -0.20619318 0.6391209 -0.6771872 0.69494665
0.94371873 0.5892601 -0.22598945 -0.44572467 -0.08574605 0.12979734 0.7834333 0.7248724
-0.27877656 0.3156109 -0.0121336505 -0.5827187
00000000: 8c2b bcbe 686e a1be c873 753f 62c5 eabe
00000010: 4e24 53be 6d9d 233f 245c 2dbf 06e8 313f
00000020: 8d97 713f c0d9 163f c769 67be 0636 e4be
00000030: a09b afbd 98e9 043e 168f 483f 3d91 393f
00000040: cdbb 8ebe c097 a13e 38cc 46bc 0d2d 15bf

weight f4 [1, 20]
-0.23955803 -0.8295252 0.28155696 -0.3114588 -0.2901526 0.191707 -0.40016633 0.21883887
0.27357712 0.20869632 -0.6709139 -0.23019917 -0.5687657 0.009004422 0.3603343 0.17694229
-0.35135284 1.0033494 -0.22266641 -0.49294823
00000000: b34e 75be c35b 54bf 3c28 903e 8777 9fbe
00000010: e28e 94be d74e 443e 9ae2 ccbe 4c17 603e
00000020: 4d12 8c3e 7db4 553e 03c1 2bbf 55b9 6bbe
00000030: a19a 11bf 4987 133c bd7d b83e 5c30 353e
00000040: 85e4 b3be c16d 803f aa02 64be b663 fcbe
